…
* **VGG**: deep stacks of 3x3 convs; simple and uniform; heavy parameter count.
* **Inception**: mixed kernel sizes in parallel (1x1, 3x3, 5x5) with dimension reduction via 1x1 convs.
* **ResNet**: residual connections `y = F(x) + x` allow training very deep nets by solving degradation problem.

When progressing from AlexNet to these, note the evolution:

* AlexNet: larger kernels, large FC layers.
* VGG: smaller kernels but deeper.
* Inception: width and multi-scale processing.
* ResNet: skip-connections to enable depth.

"""

import torchvision.models as models
vgg = models.vgg16(pretrained=True)
print(vgg.features[:])
# Output:
#   Sequential(

#     (0): Conv2d(3, 64, kernel_size=(3, 3), stride=(1, 1), padding=(1, 1))

#     (1): ReLU(inplace=True)

#     (2): Conv2d(64, 64, kernel_size=(3, 3), stride=(1, 1), padding=(1, 1))

#     (3): ReLU(inplace=True)

#     (4): MaxPool2d(kernel_size=2, stride=2, padding=0, dilation=1, ceil_mode=False)

#     (5): Conv2d(64, 128, kernel_size=(3, 3), stride=(1, 1), padding=(1, 1))

#     (6): ReLU(inplace=True)

#     (7): Conv2d(128, 128, kernel_size=(3, 3), stride=(1, 1), padding=(1, 1))

#     (8): ReLU(inplace=True)

#     (9): MaxPool2d(kernel_size=2, stride=2, padding=0, dilation=1, ceil_mode=False)

#     (10): Conv2d(128, 256, kernel_size=(3, 3), stride=(1, 1), padding=(1, 1))

#     (11): ReLU(inplace=True)

#     (12): Conv2d(256, 256, kernel_size=(3, 3), stride=(1, 1), padding=(1, 1))

#     (13): ReLU(inplace=True)

#     (14): Conv2d(256, 256, kernel_size=(3, 3), stride=(1, 1), padding=(1, 1))

#     (15): ReLU(inplace=True)

#     (16): MaxPool2d(kernel_size=2, stride=2, padding=0, dilation=1, ceil_mode=False)

#     (17): Conv2d(256, 512, kernel_size=(3, 3), stride=(1, 1), padding=(1, 1))

#     (18): ReLU(inplace=True)

#     (19): Conv2d(512, 512, kernel_size=(3, 3), stride=(1, 1), padding=(1, 1))

#     (20): ReLU(inplace=True)

#     (21): Conv2d(512, 512, kernel_size=(3, 3), stride=(1, 1), padding=(1, 1))

#     (22): ReLU(inplace=True)

#     (23): MaxPool2d(kernel_size=2, stride=2, padding=0, dilation=1, ceil_mode=False)

#     (24): Conv2d(512, 512, kernel_size=(3, 3), stride=(1, 1), padding=(1, 1))

#     (25): ReLU(inplace=True)

#     (26): Conv2d(512, 512, kernel_size=(3, 3), stride=(1, 1), padding=(1, 1))

#     (27): ReLU(inplace=True)

#     (28): Conv2d(512, 512, kernel_size=(3, 3), stride=(1, 1), padding=(1, 1))

#     (29): ReLU(inplace=True)

#     (30): MaxPool2d(kernel_size=2, stride=2, padding=0, dilation=1, ceil_mode=False)

#   )


resnet = models.resnet18(pretrained=True)
print(resnet.layer1)
# Output:
#   /usr/local/lib/python3.12/dist-packages/torchvision/models/_utils.py:223: UserWarning: Arguments other than a weight enum or `None` for 'weights' are deprecated since 0.13 and may be removed in the future. The current behavior is equivalent to passing `weights=ResNet18_Weights.IMAGENET1K_V1`. You can also use `weights=ResNet18_Weights.DEFAULT` to get the most up-to-date weights.

#     warnings.warn(msg)

#   Downloading: "https://download.pytorch.org/models/resnet18-f37072fd.pth" to /root/.cache/torch/hub/checkpoints/resnet18-f37072fd.pth

#   100%|██████████| 44.7M/44.7M [00:01<00:00, 42.3MB/s]

#   Sequential(

#     (0): BasicBlock(

#       (conv1): Conv2d(64, 64, kernel_size=(3, 3), stride=(1, 1), padding=(1, 1), bias=False)

#       (bn1): BatchNorm2d(64, eps=1e-05, momentum=0.1, affine=True, track_running_stats=True)

#       (relu): ReLU(inplace=True)

#       (conv2): Conv2d(64, 64, kernel_size=(3, 3), stride=(1, 1), padding=(1, 1), bias=False)

#       (bn2): BatchNorm2d(64, eps=1e-05, momentum=0.1, affine=True, track_running_stats=True)

#     )

#     (1): BasicBlock(

#       (conv1): Conv2d(64, 64, kernel_size=(3, 3), stride=(1, 1), padding=(1, 1), bias=False)

#       (bn1): BatchNorm2d(64, eps=1e-05, momentum=0.1, affine=True, track_running_stats=True)

#       (relu): ReLU(inplace=True)

#       (conv2): Conv2d(64, 64, kernel_size=(3, 3), stride=(1, 1), padding=(1, 1), bias=False)

#       (bn2): BatchNorm2d(64, eps=1e-05, momentum=0.1, affine=True, track_running_stats=True)

#     )

#   )


inception = models.inception_v3(pretrained=True)
# Output:
#   /usr/local/lib/python3.12/dist-packages/torchvision/models/_utils.py:223: UserWarning: Arguments other than a weight enum or `None` for 'weights' are deprecated since 0.13 and may be removed in the future. The current behavior is equivalent to passing `weights=Inception_V3_Weights.IMAGENET1K_V1`. You can also use `weights=Inception_V3_Weights.DEFAULT` to get the most up-to-date weights.
…
